20
0.01579778830963665
Model: "functional"
┏━━━━━━━━━━━━━━━━━━━━━┳━━━━━━━━━━━━━━━━━━━┳━━━━━━━━━━━━┳━━━━━━━━━━━━━━━━━━━┓
┃ Layer (type)        ┃ Output Shape      ┃    Param # ┃ Connected to      ┃
┡━━━━━━━━━━━━━━━━━━━━━╇━━━━━━━━━━━━━━━━━━━╇━━━━━━━━━━━━╇━━━━━━━━━━━━━━━━━━━┩
│ alb_input           │ (None, 92, 9)     │          0 │ -                 │
│ (InputLayer)        │                   │            │                   │
├─────────────────────┼───────────────────┼────────────┼───────────────────┤
│ snowlines_input     │ (None, 79, 9)     │          0 │ -                 │
│ (InputLayer)        │                   │            │                   │
├─────────────────────┼───────────────────┼────────────┼───────────────────┤
│ bidirectional_2     │ (None, 92, 128)   │     37,888 │ alb_input[0][0]   │
│ (Bidirectional)     │                   │            │                   │
├─────────────────────┼───────────────────┼────────────┼───────────────────┤
│ mass_balance_input  │ (None, 7)         │          0 │ -                 │
│ (InputLayer)        │                   │            │                   │
├─────────────────────┼───────────────────┼────────────┼───────────────────┤
│ bidirectional       │ (None, 79, 128)   │     37,888 │ snowlines_input[… │
│ (Bidirectional)     │                   │            │                   │
├─────────────────────┼───────────────────┼────────────┼───────────────────┤
│ bidirectional_3     │ (None, 92, 128)   │     98,816 │ bidirectional_2[… │
│ (Bidirectional)     │                   │            │                   │
├─────────────────────┼───────────────────┼────────────┼───────────────────┤
│ dense (Dense)       │ (None, 64)        │        512 │ mass_balance_inp… │
├─────────────────────┼───────────────────┼────────────┼───────────────────┤
│ bidirectional_1     │ (None, 79, 128)   │     98,816 │ bidirectional[0]… │
│ (Bidirectional)     │                   │            │                   │
├─────────────────────┼───────────────────┼────────────┼───────────────────┤
│ conv1d (Conv1D)     │ (None, 92, 64)    │     16,448 │ bidirectional_3[… │
├─────────────────────┼───────────────────┼────────────┼───────────────────┤
│ dense_1 (Dense)     │ (None, 128)       │      8,320 │ dense[0][0]       │
├─────────────────────┼───────────────────┼────────────┼───────────────────┤
│ dense_3 (Dense)     │ (None, 79, 128)   │     16,512 │ bidirectional_1[… │
├─────────────────────┼───────────────────┼────────────┼───────────────────┤
│ dense_6 (Dense)     │ (None, 92, 128)   │      8,320 │ conv1d[0][0]      │
├─────────────────────┼───────────────────┼────────────┼───────────────────┤
│ dropout (Dropout)   │ (None, 128)       │          0 │ dense_1[0][0]     │
├─────────────────────┼───────────────────┼────────────┼───────────────────┤
│ dense_4 (Dense)     │ (None, 79, 64)    │      8,256 │ dense_3[0][0]     │
├─────────────────────┼───────────────────┼────────────┼───────────────────┤
│ dense_7 (Dense)     │ (None, 92, 64)    │      8,256 │ dense_6[0][0]     │
├─────────────────────┼───────────────────┼────────────┼───────────────────┤
│ dense_2 (Dense)     │ (None, 64)        │      8,256 │ dropout[0][0]     │
├─────────────────────┼───────────────────┼────────────┼───────────────────┤
│ dense_5 (Dense)     │ (None, 79, 1)     │         65 │ dense_4[0][0]     │
├─────────────────────┼───────────────────┼────────────┼───────────────────┤
│ dense_8 (Dense)     │ (None, 92, 1)     │         65 │ dense_7[0][0]     │
├─────────────────────┼───────────────────┼────────────┼───────────────────┤
│ mass_balance_output │ (None, 1)         │         65 │ dense_2[0][0]     │
│ (Dense)             │                   │            │                   │
├─────────────────────┼───────────────────┼────────────┼───────────────────┤
│ snowlines_output    │ (None, 79)        │          0 │ dense_5[0][0]     │
│ (Reshape)           │                   │            │                   │
├─────────────────────┼───────────────────┼────────────┼───────────────────┤
│ alb_output          │ (None, 92)        │          0 │ dense_8[0][0]     │
│ (Reshape)           │                   │            │                   │
└─────────────────────┴───────────────────┴────────────┴───────────────────┘
 Total params: 1,045,451 (3.99 MB)
 Trainable params: 348,483 (1.33 MB)
 Non-trainable params: 0 (0.00 B)
 Optimizer params: 696,968 (2.66 MB)
      rrr_factor   alb_ice  alb_snow  ...     sim77  sim78  sim79
0       0.706516  0.145356  0.918285  ...  0.420635    0.0    0.0
…
